../SZTAXI/SZTAXI-speed.pkl
../SZTAXI/speed_pearson.npy
data.shape (8064, 492)
pred_SZTAXI_GraphWaveNet_2205312047 training started Tue May 31 20:47:18 2022
TRAIN XS.shape YS,shape (6428, 1, 492, 12) (6428, 12, 492, 1)
Model Training Started ... Tue May 31 20:47:18 2022
TIMESTEP_IN, TIMESTEP_OUT 12 12
==========================================================================================
Layer (type:depth-idx)                   Output Shape              Param #
==========================================================================================
├─Conv2d: 1-1                            [-1, 32, 492, 13]         64
├─ModuleList: 1                          []                        --
|    └─Conv2d: 2-1                       [-1, 32, 492, 12]         2,080
├─ModuleList: 1                          []                        --
|    └─Conv1d: 2-2                       [-1, 32, 492, 12]         2,080
├─ModuleList: 1                          []                        --
|    └─Conv1d: 2-3                       [-1, 256, 492, 12]        8,448
├─ModuleList: 1                          []                        --
|    └─gcn: 2-4                          [-1, 32, 492, 12]         --
|    |    └─nconv: 3-1                   [-1, 32, 492, 12]         --
|    |    └─nconv: 3-2                   [-1, 32, 492, 12]         --
|    |    └─nconv: 3-3                   [-1, 32, 492, 12]         --
|    |    └─nconv: 3-4                   [-1, 32, 492, 12]         --
|    |    └─linear: 3-5                  [-1, 32, 492, 12]         5,152
├─ModuleList: 1                          []                        --
|    └─BatchNorm2d: 2-5                  [-1, 32, 492, 12]         64
├─ModuleList: 1                          []                        --
|    └─Conv2d: 2-6                       [-1, 32, 492, 10]         2,080
├─ModuleList: 1                          []                        --
|    └─Conv1d: 2-7                       [-1, 32, 492, 10]         2,080
├─ModuleList: 1                          []                        --
|    └─Conv1d: 2-8                       [-1, 256, 492, 10]        8,448
├─ModuleList: 1                          []                        --
|    └─gcn: 2-9                          [-1, 32, 492, 10]         --
|    |    └─nconv: 3-6                   [-1, 32, 492, 10]         --
|    |    └─nconv: 3-7                   [-1, 32, 492, 10]         --
|    |    └─nconv: 3-8                   [-1, 32, 492, 10]         --
|    |    └─nconv: 3-9                   [-1, 32, 492, 10]         --
|    |    └─linear: 3-10                 [-1, 32, 492, 10]         5,152
├─ModuleList: 1                          []                        --
|    └─BatchNorm2d: 2-10                 [-1, 32, 492, 10]         64
├─ModuleList: 1                          []                        --
|    └─Conv2d: 2-11                      [-1, 32, 492, 9]          2,080
├─ModuleList: 1                          []                        --
|    └─Conv1d: 2-12                      [-1, 32, 492, 9]          2,080
├─ModuleList: 1                          []                        --
|    └─Conv1d: 2-13                      [-1, 256, 492, 9]         8,448
├─ModuleList: 1                          []                        --
|    └─gcn: 2-14                         [-1, 32, 492, 9]          --
|    |    └─nconv: 3-11                  [-1, 32, 492, 9]          --
|    |    └─nconv: 3-12                  [-1, 32, 492, 9]          --
|    |    └─nconv: 3-13                  [-1, 32, 492, 9]          --
|    |    └─nconv: 3-14                  [-1, 32, 492, 9]          --
|    |    └─linear: 3-15                 [-1, 32, 492, 9]          5,152
├─ModuleList: 1                          []                        --
|    └─BatchNorm2d: 2-15                 [-1, 32, 492, 9]          64
├─ModuleList: 1                          []                        --
|    └─Conv2d: 2-16                      [-1, 32, 492, 7]          2,080
├─ModuleList: 1                          []                        --
|    └─Conv1d: 2-17                      [-1, 32, 492, 7]          2,080
├─ModuleList: 1                          []                        --
|    └─Conv1d: 2-18                      [-1, 256, 492, 7]         8,448
├─ModuleList: 1                          []                        --
|    └─gcn: 2-19                         [-1, 32, 492, 7]          --
|    |    └─nconv: 3-16                  [-1, 32, 492, 7]          --
|    |    └─nconv: 3-17                  [-1, 32, 492, 7]          --
|    |    └─nconv: 3-18                  [-1, 32, 492, 7]          --
|    |    └─nconv: 3-19                  [-1, 32, 492, 7]          --
|    |    └─linear: 3-20                 [-1, 32, 492, 7]          5,152
├─ModuleList: 1                          []                        --
|    └─BatchNorm2d: 2-20                 [-1, 32, 492, 7]          64
├─ModuleList: 1                          []                        --
|    └─Conv2d: 2-21                      [-1, 32, 492, 6]          2,080
├─ModuleList: 1                          []                        --
|    └─Conv1d: 2-22                      [-1, 32, 492, 6]          2,080
├─ModuleList: 1                          []                        --
|    └─Conv1d: 2-23                      [-1, 256, 492, 6]         8,448
├─ModuleList: 1                          []                        --
|    └─gcn: 2-24                         [-1, 32, 492, 6]          --
|    |    └─nconv: 3-21                  [-1, 32, 492, 6]          --
|    |    └─nconv: 3-22                  [-1, 32, 492, 6]          --
|    |    └─nconv: 3-23                  [-1, 32, 492, 6]          --
|    |    └─nconv: 3-24                  [-1, 32, 492, 6]          --
|    |    └─linear: 3-25                 [-1, 32, 492, 6]          5,152
├─ModuleList: 1                          []                        --
|    └─BatchNorm2d: 2-25                 [-1, 32, 492, 6]          64
├─ModuleList: 1                          []                        --
|    └─Conv2d: 2-26                      [-1, 32, 492, 4]          2,080
├─ModuleList: 1                          []                        --
|    └─Conv1d: 2-27                      [-1, 32, 492, 4]          2,080
├─ModuleList: 1                          []                        --
|    └─Conv1d: 2-28                      [-1, 256, 492, 4]         8,448
├─ModuleList: 1                          []                        --
|    └─gcn: 2-29                         [-1, 32, 492, 4]          --
|    |    └─nconv: 3-26                  [-1, 32, 492, 4]          --
|    |    └─nconv: 3-27                  [-1, 32, 492, 4]          --
|    |    └─nconv: 3-28                  [-1, 32, 492, 4]          --
|    |    └─nconv: 3-29                  [-1, 32, 492, 4]          --
|    |    └─linear: 3-30                 [-1, 32, 492, 4]          5,152
├─ModuleList: 1                          []                        --
|    └─BatchNorm2d: 2-30                 [-1, 32, 492, 4]          64
├─ModuleList: 1                          []                        --
|    └─Conv2d: 2-31                      [-1, 32, 492, 3]          2,080
├─ModuleList: 1                          []                        --
|    └─Conv1d: 2-32                      [-1, 32, 492, 3]          2,080
├─ModuleList: 1                          []                        --
|    └─Conv1d: 2-33                      [-1, 256, 492, 3]         8,448
├─ModuleList: 1                          []                        --
|    └─gcn: 2-34                         [-1, 32, 492, 3]          --
|    |    └─nconv: 3-31                  [-1, 32, 492, 3]          --
|    |    └─nconv: 3-32                  [-1, 32, 492, 3]          --
|    |    └─nconv: 3-33                  [-1, 32, 492, 3]          --
|    |    └─nconv: 3-34                  [-1, 32, 492, 3]          --
|    |    └─linear: 3-35                 [-1, 32, 492, 3]          5,152
├─ModuleList: 1                          []                        --
|    └─BatchNorm2d: 2-35                 [-1, 32, 492, 3]          64
├─ModuleList: 1                          []                        --
|    └─Conv2d: 2-36                      [-1, 32, 492, 1]          2,080
├─ModuleList: 1                          []                        --
|    └─Conv1d: 2-37                      [-1, 32, 492, 1]          2,080
├─ModuleList: 1                          []                        --
|    └─Conv1d: 2-38                      [-1, 256, 492, 1]         8,448
├─ModuleList: 1                          []                        --
|    └─gcn: 2-39                         [-1, 32, 492, 1]          --
|    |    └─nconv: 3-36                  [-1, 32, 492, 1]          --
|    |    └─nconv: 3-37                  [-1, 32, 492, 1]          --
|    |    └─nconv: 3-38                  [-1, 32, 492, 1]          --
|    |    └─nconv: 3-39                  [-1, 32, 492, 1]          --
|    |    └─linear: 3-40                 [-1, 32, 492, 1]          5,152
├─ModuleList: 1                          []                        --
|    └─BatchNorm2d: 2-40                 [-1, 32, 492, 1]          64
├─Conv2d: 1-2                            [-1, 512, 492, 1]         131,584
├─Conv2d: 1-3                            [-1, 12, 492, 1]          6,156
==========================================================================================
Total params: 280,396
Trainable params: 280,396
Non-trainable params: 0
Total mult-adds (M): 513.16
==========================================================================================
Input size (MB): 0.02
Forward/backward pass size (MB): 78.48
Params size (MB): 1.07
Estimated Total Size (MB): 79.57
==========================================================================================
…
